models/classifier.pth (torch, 107750 bytes, 6 tensors)

i2h.weight f4 [128, 57]
-0.5325793 -0.27216905 0.39971995 0.009685532 0.15214784 -0.19737446 -0.046427745 -0.11865567
-0.3025839 0.021123236 -0.18828675 0.69430864 0.3489503 0.31823996 -0.053232305 0.20915025
0.13103198 -0.14196004 -0.07992948 -0.35280806 -0.0930007 0.17265573 0.117381014 -0.009916416
-0.13732287 0.32439524 -0.028574117 0.06570994 0.33763206 -0.05614612 -0.13220242 -0.16208312
-0.13102315 0.17364272 -0.43589148 0.106209494 0.062936254 -0.023512702 0.10216001 0.12455726
-0.17781995 -0.17482191 -0.08055922 0.36692336 0.36517578 -0.37177005 -0.15811981 -0.0436795
0.17414139 -0.05092064 -0.010270193 -0.047980797 -0.18620828 -0.10449081 0.11526657 -0.010279536
-0.090645455 -0.09620387 -0.32767507 0.06169492 0.08001632 -0.5153923 0.108716 -0.049818147
0.3849316 0.83521754 -0.050716456 0.207767 -0.2131716 -0.0064521846 -0.12988769 0.5079611
-0.1303897 -0.08587615 -0.82928526 -0.43151146 0.24751665 0.105862275 0.3591491 -0.026309414
0.11348793 0.49402094 0.14385672 -0.21884495 -0.22652303 -0.15439932 0.06331111 0.022296356
-0.017626818 -0.049718585 0.06447358 0.15450856 0.28718024 0.20086858 -0.173519 -0.084820755
-0.012682691 0.12769239 -0.025621437 0.119610235 0.185729 -0.07355761 -0.26923218 0.15421021
-0.2136245 0.028800247 0.13452865 0.06222464 0.1345153 -0.1483165 0.082289085 -0.054233912
0.06331676 0.028001377 -0.6072195 -0.10016826 0.07228796 0.07876467 -0.47340468 0.19799255
-0.2641891 -0.31722593 0.022251349 0.20918436 0.1796412 0.2145744 -0.16638614 -0.46226364
-0.42217988 0.051539827 -0.08831928 0.35890448 0.39905915 0.21935393 0.024501085 -0.21855156
0.13534471 0.25959963 -0.120269395 0.2367542 -0.27956554 0.1057782 0.03770211 -0.10048393
-0.11587305 -0.09147099 0.11988049 0.030513112 0.027894154 0.18437363 -0.021068994 -0.015695341
0.15157726 0.035327855 -0.11416377 -0.13086025 0.008019725 0.004718211 -0.049000017 -0.10441027
-0.13034637 0.027516285 0.122752436 0.11087157 -0.06161095 -0.02025869 -0.06940055 -0.03509052
-0.1292549 -0.011912398 -0.10763286 -0.3264391 0.069788836 -0.056493502 0.18128629 0.052719187
-0.15434514 0.20605992 -0.33470538 0.11097181 -0.15530108 -0.63874704 0.629019 -0.30919945
0.266378 -0.2150951 -0.17773837 0.041190095 0.055419177 -0.26366106 0.22294533 0.136249
-0.024456963 0.018917521 -0.03728816 0.1523389 0.17565113 -0.08006322 -0.2553482 0.29101002
-0.009717947 -0.1523364 0.11351629 0.2061874 -0.06210148 -0.110698745 0.011416213 -0.3480357
0.117024794 0.25741023 0.20458823 -0.05091994 -0.094644144 -0.121636964 0.27667776 0.09769548
-0.19498351 -0.10948337 -0.23304208 0.12465023 -0.05848283 0.08340099 -0.093596116 -0.12138005
-0.06040372 0.049400613 0.04810843 0.055866975 0.18315639 -0.093496725 0.1551876 -0.2587406
0.5341986 -0.21994573 0.09068542 -0.08690242 0.19530457 0.042739782 0.15473646 -0.31501806
0.087538294 0.09722312 0.28382206 -0.058645166 -0.12583333 -0.33950186 -0.036061257 -0.020412203
0.43988538 0.012108625 -0.11331674 -0.13439761 -0.23017879 -0.0150205195 0.3271138 0.01800468
00000000: 1e57 08bf be59 8bbe 18a8 cc3e 11b0 1e3c
00000010: a5cc 1b3e 881c 4abe 052b 3ebd be01 f3bd
00000020: 47ec 9abe a30a ad3c 3ece 40be 36be 313f
00000030: 9da9 b23e 59f0 a23e 1e0a 5abd 7c2b 563e
00000040: 3f2d 063e f95d 11be 11b2 a3bd 42a3 b4be
00000050: 2777 bebd aacc 303e 7565 f03d 7778 22bc
00000060: 5e9e 0cbe 2217 a63e 4414 eabc ef92 863d
00000070: 1cde ac3e 79f9 65bd 1260 07be 1ef9 25be
00000080: ef2a 06be 66cf 313e 2b2d dfbe 5d84 d93d
00000090: b9e4 803d b69d c0bc 4439 d13d e017 ff3d
000000a0: 6f16 36be 8404 33be 3bfc a4bd 61dd bb3e
000000b0: 52f8 ba3e a558 bebe 29ea 21be 47e9 32bd
000000c0: 1f52 323e 2992 50bd 5044 28bc 8387 44bd
000000d0: 62ad 3ebe 47ff d5bd e110 ec3d 806b 28bc
000000e0: 53a4 b9bd 8906 c5bd 07c5 a7be d0b3 7c3d
000000f0: 99df a33d c0f0 03bf 7fa6 de3d 1d0e 4cbd
00000100: c115 c53e d1d0 553f 0fbc 4fbd dfc0 543e
00000110: a849 5abe d96c d3bb 4701 05be bd09 023f
00000120: e184 05be d6df afbd 0a4c 54bf 12ef dcbe
00000130: 0175 7d3e 52ce d83d 64e2 b73e d786 d7bc
00000140: 5c6c e83d 50f0 fc3e 2d4f 133e e418 60be
00000150: a7f5 67be db1a 1ebe 41a9 813d d9a6 b63c
00000160: 1e66 90bc b7a5 4bbd b90a 843d 7e37 1e3e
00000170: 4a09 933e 7eb0 4d3e f7ae 31be 81b6 adbd
00000180: 10cb 4fbc cbc1 023e 0ce4 d1bc 36f6 f43d
00000190: be2f 3e3e 5fa5 96bd cdd8 89be 48e9 1d3e
000001a0: 62c0 5abe 7fee eb3c e1c1 093e 44df 7e3d
000001b0: 61be 093e 48e0 17be 2e87 a83d 6124 5ebd
000001c0: 38ac 813d 2563 e53c bd72 1bbf 0425 cdbd
000001d0: b60b 943d 5f4f a13d 1962 f2be 8fbe 4a3e
000001e0: cb43 87be 706b a2be 7648 b63c 6d34 563e
000001f0: ddf3 373e 64b9 5b3e 2161 2abe d2ad ecbe
00000200: f627 d8be 6d1b 533d bde0 b4bd 54c2 b73e
00000210: 7b51 cc3e 519e 603e 80b6 c83c fbcb 5fbe
00000220: ce97 0a3e 3eea 843e cd4f f6bd b16f 723e
00000230: 3723 8fbe 3ea2 d83d 876d 1a3d 85ca cdbd
00000240: da4e edbd 2455 bbbd e783 f53d a2f6 f93c
00000250: 4882 e43c 71cc 3c3e e298 acbc 8493 80bc
00000260: 1237 1b3e f1b3 103d b2ce e9bd 3b00 06be
00000270: 2a65 033c 399b 9a3b 3eb4 48bd 0dd5 d5bd
00000280: 8579 05be d569 e13c a165 fb3d a210 e33d
00000290: c35b 7cbd 8df5 a5bc e021 8ebd 14bb 0fbd
000002a0: 665b 04be 382c 43bc 9e6e dcbd 0723 a7be
000002b0: 73ed 8e3d bb65 67bd 1da3 393e 13f0 573d
000002c0: a70c 1ebe 5f01 533e 815e abbe 3045 e33d
000002d0: 3f07 1fbe ed84 23bf 6407 213f 644f 9ebe
000002e0: b262 883e e441 5cbe 0c01 36be f2b6 283d
000002f0: 38ff 623d 95fe 86be c84b 643e dc84 0b3e
00000300: f859 c8bc ebf8 9a3c 78bb 18bd bbfe 1b3e
00000310: e4dd 333e 2ff8 a3bd 00bd 82be 44ff 943e
00000320: 0638 1fbc 13fe 1bbe 3b7b e83d ca22 533e
00000330: 1f5e 7ebd 06b6 e2bd 110b 3b3c bc31 b2be
00000340: b2aa ef3d 46cb 833e 947f 513e 6d91 50bd
00000350: cad4 c1bd cd1c f9bd b5a8 8d3e 9114 c83d
00000360: c2a9 47be d138 e0bd 95a2 6ebe 9f48 ff3d
00000370: b18b 6fbd 23ce aa3d 52af bfbd 1b96 f8bd
00000380: e469 77bd 4c58 4a3d 580d 453d c5d4 643d
00000390: 598d 3b3e 367b bfbd 80e9 1e3e a679 84be
000003a0: 3dc1 083f 7439 61be 47b9 b93d e5f9 b1bd
000003b0: ecfd 473e e90f 2f3d 3c73 1e3e 0c4a a1be
000003c0: 4747 b33d ea1c c73d 2051 913e ea35 70bd
000003d0: 74da 00be 30d3 adbe f8b4 13bd 7e37 a7bc
000003e0: a838 e13e 4163 463c 9b12 e8bd 879f 09be
000003f0: fdb3 6bbe a018 76bc 767b a73e 8d7e 933c

i2h.bias f4 [128]
-0.007349258 -0.015830709 0.01936322 0.010394323 -0.026056176 0.02451213 0.12189082 0.043007184
-0.0006981435 -0.05576203 0.033415105 0.111147135 -0.006457833 0.075402565 -0.046326816 0.034999058
-0.044941958 0.049862836 -0.11121658 -0.042967454 0.05297288 0.013198939 -0.026375724 -0.017026745
0.1547525 -0.13199708 -0.13622133 0.013407476 0.04793027 -0.062185567 -0.009529546 -0.072135545
0.10605677 0.10683721 0.08882045 0.030444764 -0.11254251 -0.05899279 0.07803933 0.031999145
-0.0974012 0.040826336 -0.017953843 -0.077691026 -0.023482803 -0.049821515 -0.05576947 -0.067219265
-0.17835249 -0.004386339 -0.110312425 0.03235635 -0.009163151 -0.02011199 0.01572915 0.013235222
0.054972716 -0.084049255 0.03288082 0.13243775 -0.12261462 0.03650075 -0.026301546 0.024801394
-0.02013857 0.017565582 -0.05321458 0.018136326 0.021107452 -0.0799696 -0.066934794 -0.042547245
-0.0030759044 0.08558703 0.03532217 0.08124574 0.11400059 0.07959507 0.12375529 -0.006475123
0.055323407 0.11665169 0.016218955 0.049910158 0.0002738905 0.024477134 0.0749118 0.03557299
0.03069897 0.03565489 0.0020349983 -0.1169604 -0.10048743 0.11964366 0.0042793984 0.010321317
0.1496459 0.2389225 0.042118054 -0.007911664 0.04854653 0.09361815 -0.015140103 -0.0050974376
0.0459317 0.17970808 -0.009053892 0.103425674 0.04883622 0.081553794 0.03771947 -0.03205979
-0.06179909 0.046561074 -0.07803478 0.0027289968 0.019581355 0.05779085 -0.012728572 -0.045678888
-0.0079069575 0.0773338 0.044287737 -0.025458395 -0.024791665 0.048949618 -0.048712075 0.08867545
00000000: 0bd2 f0bb 67af 81bc 9e9f 9e3c f34c 2a3c
00000010: c373 d5bc aacd c83c e5a1 f93d 4d28 303d
00000020: 9e03 37ba ba66 64bd 47de 083d 1ca1 e33d
00000030: 3b9c d3bb a96c 9a3d 30c1 3dbd 2c5b 0f3d
00000040: 0f15 38bd f93c 4c3d 85c5 e3bd a4fe 2fbd
00000050: 17fa 583d 5d40 583c e711 d8bc ac7b 8bbc
00000060: 7077 1e3e 3e2a 07be 9b7d 0bbe 08ab 5b3c
00000070: 8852 443d 4bb6 7ebd d021 1cbc cdbb 93bd
00000080: 4b34 d93d 78cd da3d 7fe7 b53d 4c67 f93c
00000090: b07c e6bd 6ca2 71bd 16d3 9f3d 8911 033d
000000a0: 487a c7bd 8439 273d f013 93bc 791c 9fbd
000000b0: 025f c0bc a511 4cbd 876e 64bd 41aa 89bd
000000c0: 09a2 36be 47bb 8fbb 7beb e1bd 1888 043d
000000d0: 0a21 16bc e6c1 a4bc 6bda 803c 8bd8 583c
000000e0: 122b 613d 0422 acbd 0aae 063d c39d 073e
000000f0: 601d fbbd cf81 153d 5776 d7bc 4b2c cb3c
00000100: a4f9 a4bc b2e5 8f3c 88f7 59bd a292 943c
00000110: 89e9 ac3c 1ac7 a3bd 1c15 89bd 0546 2ebd
00000120: 1d95 49bb 4148 af3d fbad 103d 2b64 a63d
00000130: 2479 e93d bd02 a33d 6a73 fd3d 452d d4bb
00000140: cc9a 623d 15e7 ee3d 9ddd 843c 986e 4c3d
00000150: f698 8f39 4584 c83c 5c6b 993d fcb4 113d
00000160: 687c fb3c dd0a 123d 9b5d 053b ef88 efbd
00000170: 5bcc cdbd bc07 f53d 323a 8c3b be1a 293c
00000180: c63c 193e 1aa8 743e fb83 2c3d ed9f 01bc
00000190: bad8 463d dfba bf3d 320e 78bc 6808 a7bb
000001a0: e122 3c3d 6505 383e c756 14bc d7d0 d33d
000001b0: 7d08 483d ad05 a73d bb7f 1a3d 2051 03bd
000001c0: 0b21 7dbd d3b6 3e3d b3d0 9fbd f8d8 323b
000001d0: 1469 a03c 19b6 6c3d 808b 50bc c919 3bbd
000001e0: 2f8c 01bc 2f61 9e3d 0f67 353d 208e d0bc
000001f0: e417 cbbc 657f 483d 5086 47bd 799b b53d

h2h.weight f4 [128, 128]
0.3497019 0.30702132 0.022738121 0.03707637 0.054984633 0.018199591 -0.003103775 0.11720944
0.09033432 -0.11706292 0.2453612 -0.06466459 -0.038140964 0.0061016358 -0.020753598 -0.0349988
-0.05332057 -0.059253033 0.041030217 0.104176365 0.20377971 -0.15240362 0.049309522 -0.03150964
0.12381239 0.16643052 -0.104360595 -0.011117363 0.06254036 -0.10832137 -0.09995869 0.09059599
-0.11374134 -0.09282985 0.031084599 0.1538336 -0.42770562 0.19865927 -0.05670232 -0.09181711
-0.043662008 -0.0365553 -0.06642631 0.18544488 0.0049959114 0.18807182 -0.04969626 -0.121235624
0.1391415 -0.04960176 -0.031780552 -0.038872816 0.23542106 -0.22665204 0.008393328 0.019297311
-0.15159743 -0.23625933 0.037780084 -0.11357661 0.08343381 -0.009443077 -0.053311523 -0.0025473374
-0.1780239 -0.12182462 0.008782919 0.05671366 -0.21778524 -0.06995116 0.11570603 -0.040607177
0.10268887 -0.06629421 -0.12545846 -0.06401055 -0.22829707 -0.23988706 0.15841079 -0.17001827
0.17268738 0.10669096 -0.18366456 -0.28613433 -0.1191977 0.08298971 -0.06206729 -0.053416032
-0.0244958 0.03141419 -0.13545755 -0.003956585 0.13087459 0.28278884 0.101863205 0.13102934
-0.03706468 0.20567311 0.05014022 0.098807454 0.23455267 0.06230756 0.11295781 0.01863964
0.14240213 -0.15390271 0.088990904 -0.057431147 0.014759158 -0.13130464 0.04047269 0.09852901
-0.12256634 -0.11084558 -0.25327185 0.022772234 -0.05787937 0.051873606 -0.1401518 0.07950501
-0.022097021 -0.10107321 0.0609258 -0.025286715 0.16212735 0.13242772 -0.016503332 0.12579988
-0.01842168 0.103777364 -0.2136571 0.0043102656 0.20211026 -0.058930445 -0.13209893 -0.033886522
-0.062829725 0.13014072 0.11902253 0.009757232 0.25061417 0.15503554 0.20724405 0.0707656
-0.02062392 0.13311669 -0.14498301 0.12109612 -0.118935116 0.12582883 -0.030439109 0.012182721
0.115989275 0.10756106 -4.9150003e-05 0.07472724 0.041261386 -0.18370198 0.20583908 -0.01836079
0.01456165 -0.06649727 -0.09254963 -0.09127509 -0.06675252 -0.012403763 0.20191078 -0.153714
-0.096530564 -0.061004285 -0.016659018 -0.015292824 -0.2984765 0.058235068 0.22741641 0.034758788
-0.035517808 0.0045203487 -0.027530443 -0.13665329 0.050153874 -0.039745186 -0.19015135 -0.019683054
0.09364703 0.13443933 -0.082921036 0.06443149 -0.26493344 0.111142375 -0.031908315 0.1417926
-0.156536 -0.09270423 0.14767401 -0.016131492 -0.053980205 0.056271784 0.13312179 -0.13420926
0.12859839 0.1248359 0.051077362 -0.30363637 0.16613328 -0.10050908 0.019973189 -0.029747557
-0.121190265 0.0010264753 0.065742135 -0.2179941 -0.16271612 0.097534396 -0.019394057 -0.12892476
0.008468092 0.11376842 -0.15024753 0.113988385 -0.13614446 -0.013320615 0.03451882 -0.031956404
0.04226887 0.06931077 0.10166481 -0.16987245 -0.007156427 0.050125487 0.22515802 -0.025340017
0.031124067 -0.08370758 0.022576194 -0.1858974 0.05435752 -0.10677402 0.13905862 -0.026371537
-0.1548931 0.033540312 -0.09471792 0.2285299 -0.014878905 -0.16167904 -0.25392964 0.073118046
-0.0027922383 0.08173631 -0.09310624 -0.022985116 0.14495303 -0.090189986 -0.17501615 0.18697843
00000000: 210c b33e e631 9d3e 4c45 ba3c 64dd 173d
00000010: 9137 613d 4f17 953c b468 4bbb 810b f03d
00000020: 3301 b93d afbe efbd f73f 7b3e de6e 84bd
00000030: b339 1cbd 3bf0 c73b 7303 aabc e75a 0fbd
00000040: ac66 5abd 4fb3 72bd 4d0f 283d 6b5a d53d
00000050: a1ab 503e b20f 1cbe c8f8 493d 4110 01bd
00000060: 5a91 fd3d c36c 2a3e 02bb d5bd 9a25 36bc
00000070: 2915 803d 98d7 ddbd 24b7 ccbd 648a b93d
00000080: 38f1 e8bd 941d bebd 21a5 fe3c 8e86 1d3e
00000090: 3bfc dabe 566d 4b3e b140 68bd 9c0a bcbd
000000a0: efd6 32bd 03bb 15bd 840a 88bd 43e5 3d3e
000000b0: beb4 a33b e695 403e 4e8e 4bbd 624a f8bd
000000c0: 1c7b 0e3e 372b 4bbd 532c 02bd 1a39 1fbd
000000d0: 3812 713e 7917 68be 2b84 093c 6515 9e3c
000000e0: 5b3c 1bbe f7ed 71be 4abf 1a3d db9a e8bd
000000f0: 58df aa3d 23b7 1abc 2f5d 5abd 3bf1 26bb
00000100: e64b 36be 307f f9bd 3be6 0f3c 954c 683d
00000110: 1803 5fbe 8e42 8fbd 48f7 ec3d b653 26bd
00000120: 8b4e d23d 42c5 87bd 2f78 00be f717 83bd
00000130: b5c6 69be f4a4 75be 7036 223e 4519 2ebe
00000140: f6d4 303e ca80 da3d 9012 3cbe 3380 92be
00000150: ec1d f4bd 82f6 a93d 453a 7ebd c5ca 5abd
00000160: 6aab c8bc 2aac 003d 62b5 0abe 3ea6 81bb
00000170: fd03 063e b3c9 903e a89d d03d 8e2c 063e
00000180: 22d1 17bd f99b 523e d55f 4d3d 905b ca3d
00000190: 932e 703e 3636 7f3d 6d56 e73d 29b2 983c
000001a0: ddd1 113e ac98 1dbe dd40 b63d ec3c 6bbd
000001b0: 65d0 713c b974 06be b1c6 253d 94c9 c93d
000001c0: 1004 fbbd 0203 e3bd d9ac 81be d68c ba3c
000001d0: eb12 6dbd 6b79 543d f483 0fbe 86d3 a23d
000001e0: d004 b5bc 79ff cebd 558d 793d 1626 cfbc
000001f0: b604 263e 229b 073e ff31 87bc afd1 003e
00000200: 10e9 96bc 3a89 d43d edc8 5abe 213d 8d3b
00000210: fef5 4e3e 0d61 71bd f144 07be 98cc 0abd
00000220: dfac 80bd 9c43 053e 16c2 f33d ccdc 1f3c
00000230: 8050 803e a3c1 1e3e c937 543e 8eed 903d
00000240: 7ff3 a8bc be4f 083e 6d76 14be 3e01 f83d
00000250: 4194 f3bd 46d9 003e 705b f9bc 099a 473c
00000260: c98b ed3d f948 dc3d 6a26 4eb8 980a 993d
00000270: b301 293d 5f1c 3cbe 7bc7 523e 5e69 96bc
00000280: fd93 6e3c b82f 88bd a98a bdbd 6fee babd
00000290: 8cb5 88bd 2739 4bbc b3c1 4e3e 3467 1dbe
000002a0: d1b1 c5bd a1df 79bd 7e78 88bc c18e 7abc
000002b0: e9d1 98be e587 6e3d d9df 683e 3b5f 0e3d
000002c0: 1f7b 11bd 6f1f 943b 8687 e1bc d7ee 0bbe
000002d0: 266e 4d3d d9cb 22bd 09b7 42be 5b3e a1bc
000002e0: 04ca bf3d 77aa 093e 81d2 a9bd a8f4 833d
000002f0: 5ba5 87be 9d9e e33d 4bb2 02bd 1432 113e
00000300: f94a 20be b7db bdbd db37 173e 3126 84bc
00000310: 591a 5dbd 3e7d 663d 1451 083e 276e 09be
00000320: 4caf 033e f7a9 ff3d 7f36 513d 3a76 9bbe
00000330: d81e 2a3e b4d7 cdbd d09e a33c 26b1 f3bc
00000340: 9a32 f8bd cc8a 863a d0a3 863d d839 5fbe
00000350: 0e9f 26be 1dc0 c73d 49e0 9ebc da04 04be
00000360: c1bd 0a3c 6bff e83d 7dda 19be be72 e93d
00000370: 7469 0bbe b53e 5abc 9b63 0d3d b8e4 02bd
00000380: 1f22 2d3d cef2 8d3d a435 d03d 0bf3 2dbe
00000390: 7680 eabb 6250 4d3d d38f 663e de95 cfbc
000003a0: e6f7 fe3c e16e abbd b6f1 b83c e35b 3ebe
000003b0: fea5 5e3d 56ac dabd 6265 0e3e 1f09 d8bc
000003c0: 4c9c 1ebe 9161 093d 78fb c1bd be03 6a3e
000003d0: a7c6 73bc 318f 25be 1103 82be eabe 953d
000003e0: fcfd 36bb 5e65 a73d 7cae bebd 484b bcbc
000003f0: 916e 143e 87b5 b8bd 6f37 33be 4677 3f3e

h2h.bias f4 [128]
-0.13235037 0.042111456 0.0643598 0.081033215 -0.073668174 -0.003129123 0.008547479 0.025698606
-0.0820649 -0.14978872 0.031870082 -0.015716888 0.13290992 -0.0016425179 0.102552906 0.04488358
-0.0010190614 0.03182829 0.057632364 -0.030816702 -0.124195985 0.018361984 0.019672293 0.060333516
-0.036201004 -0.117259815 -0.07011456 0.044450987 0.006546974 0.032555178 0.022872958 0.07122683
-0.015254539 -0.07145452 0.09626278 0.017320095 -0.06754824 0.042954825 0.06791327 -0.034391485
-0.02052125 -0.021650398 0.070713915 0.0029146539 -0.03666522 0.0071328525 -0.0003707883 -0.0046319575
-0.0016385623 0.08448762 -0.079059556 -0.0021600563 0.08859367 0.1328095 -0.030941034 -0.13609204
-0.051042933 -0.0030738942 -0.11987167 -0.013293096 -0.16302763 -0.004820016 0.06135325 0.06334024
0.035633307 -0.04181135 0.06347707 0.009683836 -0.074342296 0.043570165 0.0016150868 -0.11563133
0.079765245 0.027443554 -0.003793647 -0.047758512 -0.024055824 -0.008522547 -0.046953455 0.0017752498
-0.0015602234 -0.012769534 0.003666668 0.021223294 0.10801913 0.069996685 0.006129346 -0.011640713
0.023940232 -0.08780493 0.03192285 -0.09271665 0.0018287844 0.008993499 0.04110329 -0.11881085
-0.0025460157 0.18678807 -0.040056013 0.0022657763 -0.04527051 0.025489822 -0.0678728 -0.0468089
0.048118167 0.04612205 0.15772629 0.08070606 0.0702578 0.0027690404 0.005711234 -0.04631495
0.093444385 0.042557463 0.0836172 -0.07966678 -0.05571471 0.032777943 -0.003261315 -0.06208797
0.011750485 -0.10198871 -0.024842681 -0.0031184854 -0.057643846 -0.014449633 -0.09153019 -0.058581088
00000000: db86 07be 107d 2c3d 12cf 833d bef4 a53d
00000010: 57df 96bd f911 4dbb ba0a 0c3c e285 d23c
00000020: a411 a8bd 3762 19be 348a 023d b4c0 80bc
00000030: 8a19 083e c149 d7ba 4207 d23d d8d7 373d
00000040: 0792 85ba 625e 023d ea0f 6c3d 4f73 fcbc
00000050: 775a febd df6b 963c ca27 a13c 4720 773d
00000060: 8147 14bd ea25 f0bd 3998 8fbd 3d12 363d
00000070: 0088 d63b 9458 053d 1260 bb3c 5fdf 913d
00000080: 2dee 79bc bf56 92bd 6c25 c53d dfe2 8d3c
00000090: bb56 8abd 66f1 2f3d 1d16 8b3d 16de 0cbd
000000a0: 2e1c a8bc 2d5c b1bc 75d2 903d c703 3f3b
000000b0: 452e 16bd b4ba e93b 5d66 c2b9 adc7 97bb
000000c0: 07c5 d6ba d807 ad3d fae9 a1bd bb8f 0dbb
000000d0: 9970 b53d 37ff 073e 0d78 fdbc b65b 0bbe
000000e0: 6512 51bd 6373 49bb 477f f5bd 49cb 59bc
000000f0: b7f0 26be 3af1 9dbb 8c4d 7b3d 87b8 813d
00000100: 3bf4 113d 6142 2bbd 4400 823d f4a8 1e3c
00000110: c640 98bd a176 323d 52b1 d33a 1ed0 ecbd
00000120: f65b a33d 4ed1 e03c d69e 78bb 6e9e 43bd
00000130: b810 c5bc 27a2 0bbc 4452 40bd 80af e83a
00000140: 6980 ccba 4f37 51bc 7b4c 703b 79dc ad3c
00000150: 2239 dd3d 6c5a 8f3d aed8 c83b b0b8 3ebc
00000160: 4e1e c43c 12d3 b3bd 89c1 023d 3ae2 bdbd
00000170: d2b3 ef3a 7859 133c ec5b 283d 1a53 f3bd
00000180: 0edb 26bb 5f45 3f3e c611 24bd 6b7d 143b
00000190: 926d 39bd 08d0 d03c e500 8bbd b0ba 3fbd
000001a0: 8e17 453d 7aea 3c3d 0083 213e 3849 a53d
000001b0: 52e3 8f3d ca78 353b 4e25 bb3b bfb4 3dbd
000001c0: c55f bf3d bc50 2e3d 7f3f ab3d 5628 a3bd
000001d0: 1c35 64bd 2a42 063d c9bb 55bb f54f 7ebd
000001e0: 1b85 403c 75df d0bd e182 cbbc 815f 4cbb
000001f0: f41b 6cbd 27be 6cbc 2e74 bbbd b9f2 6fbd

h2o.weight f4 [18, 128]
-0.40959352 -0.16158488 -0.11765247 -0.040502835 -0.41073152 0.19245102 0.12376359 -0.21865723
-0.17568707 -0.2843278 -0.06935998 -0.17801706 0.41849807 0.07249827 -0.19503744 -0.2894444
0.4051231 0.025619831 -0.5305858 -0.48842618 -0.15592247 0.00260666 0.056127574 -0.21529005
-0.35980764 -0.2997521 -0.17822796 -0.33454597 0.19767173 0.4667945 -0.36835793 0.31571978
0.19043761 0.17792489 -0.07650083 -0.13928202 -0.27684247 -0.12662844 0.08920081 0.16136748
0.18043713 -0.28711906 0.048811287 -0.045003217 -0.06244367 -0.5384863 -0.10854104 -0.2206675
-0.018433148 0.028938413 0.23071142 -0.06379375 -0.2704807 -0.10580909 -0.19924046 -0.04575926
0.5989162 -0.012014405 0.38905576 0.21999185 0.029269863 0.21372993 0.15261665 -0.031966396
-0.5110921 -0.27679834 -0.030339938 0.37938538 0.40842715 0.048550196 -0.54401475 0.055758644
0.22650886 0.24198532 -0.07515233 0.15677206 0.14605018 0.315294 -0.13585275 -0.22473411
-0.0014702195 0.43182486 -0.3307195 0.09351146 0.67930716 -0.27144954 0.35463297 -0.3205508
-0.0333786 0.44050035 -0.023041816 -0.3143312 0.24622694 -0.9354298 -0.16472937 -0.765618
0.37619588 -0.107026994 -0.044847555 0.06352721 -0.39796266 0.4812063 0.17266308 -0.03711344
0.21046135 0.20289011 -0.22666216 0.20926397 0.44851604 -0.27925965 -0.23327637 0.09501549
-0.11769784 0.024902292 0.0074523003 0.10894595 0.4122185 -0.09718657 -0.15911776 0.38489982
-0.32075018 0.10237932 -0.11040534 0.56722414 0.31988025 -0.025882587 -0.024417952 -0.22479036
-0.18652776 -0.07810596 -0.3642171 0.07144756 0.2348205 -0.21572274 0.16379768 0.004243588
0.3676054 -0.25727934 0.18649696 0.19271003 -0.21125968 0.6410018 0.27750593 -0.32663852
0.13573338 -0.3028819 0.22203027 0.20966557 0.42640534 0.062059384 0.30858716 -0.20857453
0.028538562 0.09226876 0.064961694 0.5978109 -0.22658297 -0.21239872 0.22021505 -0.2400349
-0.123934366 -0.17144376 0.086273134 0.39592305 0.50223565 0.3156603 -0.1741417 -0.4207272
0.0030286212 -0.055293858 0.15799493 0.1854061 -0.33769342 -0.24696241 -0.012549708 0.13538347
0.06538769 0.20747507 0.071562625 -0.30716133 0.14537486 0.76974964 -0.2893334 0.15418051
0.5740111 0.47146314 -0.24144746 -0.65349877 0.31568044 0.25579518 0.10631441 -0.20051989
0.22229423 0.06094535 0.0218234 0.24766098 0.18510516 0.2969269 0.20095336 0.010888816
-0.594149 0.28596273 0.48280662 0.449341 0.12642832 0.03583246 -0.20254248 -0.014124439
-0.20252645 0.21387216 -0.1337709 0.15750808 0.14556076 0.31472376 0.047737233 0.52870995
-0.3679501 -0.15361802 0.10469608 -0.09312988 -0.41778788 0.23512354 0.4601768 0.30437106
-0.23804481 0.018717233 -0.06779657 0.043247208 -0.24604227 0.033298455 0.15912704 0.38079852
0.04004739 0.6938869 -0.24664171 -0.1921616 0.07835142 0.30757117 0.06182137 -0.3276767
0.3951069 -0.20082271 0.13309819 -0.20974156 0.079697974 -0.2729957 0.5245498 0.46217525
0.07812552 -0.016103841 -0.52401495 -0.009262715 -0.20101538 -0.0845224 0.13516256 -0.052525666
00000000: 3eb6 d1be 8276 25be c7f3 f0bd 4de6 25bd
00000010: 674b d2be e111 453e c477 fd3d aee7 5fbe
00000020: 50e7 33be 6a93 91be 9b0c 8ebd 1b4a 36be
00000030: 6145 d63e f979 943d e5b7 47be 0e32 94be
00000040: 4c6c cf3e aee0 d13c 79d4 07bf ff12 fabe
00000050: 24aa 1fbe 7fd4 2a3b 07e6 653d ff74 5cbe
00000060: b538 b8be 1b79 99be 6481 36be 9c49 abbe
00000070: 756a 4a3e b0ff ee3e 6999 bcbe 06a6 a13e
00000080: 1402 433e f131 363e 78ac 9cbd f29f 0ebe
00000090: 4cbe 8dbe e3aa 01be eaae b63d 843d 253e
000000a0: 83c4 383e 4501 93be 58ee 473d 4b55 38bd
000000b0: efc4 7fbd 3dda 09bf c44a debd a9f6 61be
000000c0: 1d01 97bc 4010 ed3c 9d3f 6c3e 4ca6 82bd
000000d0: 727c 8abe 70b2 d8bd b105 4cbe 106e 3bbd
000000e0: 9252 193f 11d8 44bc 5132 c73e 8b45 613e
000000f0: 5ac7 ef3c 05dc 5a3e 8a47 1c3e 32ef 02bd
00000100: efd6 02bf 83b8 8dbe 768b f8bc cd3e c23e
00000110: 5d1d d13e 92dc 463d 8d44 0bbf 2d63 643d
00000120: f0f1 673e 00cb 773e 77e9 99bd db88 203e
00000130: 2e8e 153e 376e a13e fc1c 0bbe b320 66be
00000140: 61b4 c0ba 2618 dd3e 1154 a9be f082 bf3d
00000150: 13e7 2d3f 6ffb 8abe 7492 b53e 3c1f a4be
00000160: 00b8 08bd 4389 e13e 31c2 bcbc 05f0 a0be
00000170: ea22 7c3e 5478 6fbf d1ae 28be 8bff 43bf
00000180: bf9c c03e f830 dbbd 12b2 37bd 8e1a 823d
00000190: c3c1 cbbe ac60 f63e 97ce 303e 4304 18bd
000001a0: 2e83 573e 6dc2 4f3e 201a 68be 4b49 563e
000001b0: e5a3 e53e 1ffb 8ebe 00e0 6ebe 7b97 c23d
000001c0: 910b f1bd e4ff cb3c 6d32 f43b 0e1f df3d
000001d0: 4e0e d33e c109 c7bd c4ef 22be 9711 c53e
000001e0: 5e39 a4be 40ac d13d 321c e2bd 9a35 113f
000001f0: 58c7 a33e b807 d4bc 2808 c8bc 722f 66be
00000200: 2201 3fbe 04f6 9fbd aa7a babe 1953 923d
00000210: c974 703e 6ce6 5cbe 94ba 273e cc0d 8b3b
00000220: c636 bc3e 1eba 83be 0ff9 3e3e c755 453e
00000230: 7554 58be b218 243f 4215 8e3e 2a3d a7be
00000240: b1fd 0a3e 5613 9bbe e75b 633e 92b2 563e
00000250: cd51 da3e fb31 7e3d 23ff 9d3e 9094 55be
00000260: b4c9 e93c 67f7 bc3d a30a 853d 230a 193f
00000270: 5e05 68be 0d7f 59be 0e80 613e b5cb 75be
00000280: 4dd1 fdbd f48e 2fbe f8af b03d 6db6 ca3e
00000290: 8492 003f 3a9e a13e 3452 32be 8e69 d7be
000002a0: d57b 463b d07b 62bd 6cc9 213e 19db 3d3e
000002b0: 27e6 acbe b7e3 7cbe 4a9d 4dbc f7a1 0a3e
000002c0: fbe9 853d 5874 543e 6d8f 923d 4044 9dbe
000002d0: 26dd 143e 500e 453f 8223 94be 7fe1 1d3e
000002e0: 64f2 123f 9e63 f13e 013e 77be b24b 27bf
000002f0: dea0 a13e 96f7 823e 5fbb d93d 1655 4dbe
00000300: 19a1 633e d5a1 793d fdc6 b23c d79a 7d3e
00000310: 358c 3d3e cd06 983e b8c6 4d3e 0167 323c
00000320: 261a 18bf b569 923e 6e32 f73e 0610 e63e
00000330: 6d76 013e 0fc5 123d 4c67 4fbe 316a 67bc
00000340: 1863 4fbe 4e01 5b3e 3dfb 08be cc49 213e
00000350: e10d 153e 7923 a13e 1e88 433d 8959 073f
00000360: f563 bcbe 0b4e 1dbe e66a d63d e1ba bebd
00000370: 4be8 d5be 3ac4 703e 4b9c eb3e 86d6 9b3e
00000380: 05c2 73be e254 993c eed8 8abd fc23 313d
00000390: 81f2 7bbe f663 083d 33f2 223e 06f8 c23e
000003a0: bb08 243d 92a2 313f a58f 7cbe 03c6 44be
000003b0: b676 a03d f879 9d3e 6838 7d3d 3ec5 a7be
000003c0: 744b ca3e 78a4 4dbe e44a 083e 7ec6 56be
000003d0: b138 a33d 18c6 8bbe e548 063f 3ca2 ec3e
000003e0: 4600 a03d 34ec 83bc d825 06bf a4c2 17bc
000003f0: fad6 4dbe 141a adbd 0e68 0a3e 2725 57bd

h2o.bias f4 [18]
-0.17686749 -0.060174223 0.4381736 0.112690054 0.55654246 0.15830216 0.21522988 -0.49249816
-0.11794536 -0.18554571 -0.17828663 0.4003606 0.0561614 -0.65986145 0.10529612 -0.20761248
0.037498966 0.19830407
00000000: c01c 35be 3f79 76bd 4a58 e03e 0bca e63d
00000010: 9179 0e3f f619 223e 3965 5c3e b828 fcbe
00000020: 568d f1bd b2ff 3dbe c590 36be 11fc cc3e
00000030: 7f09 663d aeec 28bf 7ea5 d73d 5e98 54be
00000040: 8498 193d 3910 4b3e
